…
 64, 64]) # do a test pass through of an example input size \n\nCollecting torchinfo\n  Downloading torchinfo-1.6.5-py3-none-any.whl (21 kB)\nInstalling collected packages: torchinfo\nSuccessfully installed torchinfo-1.6.5\n\n\n==========================================================================================\nLayer (type:depth-idx)                   Output Shape              Param #\n==========================================================================================\nTinyVGG                                  --                        --\n├─Sequential: 1-1                        [1, 10, 32, 32]           --\n│    └─Conv2d: 2-1                       [1, 10, 64, 64]           280\n│    └─ReLU: 2-2                         [1, 10, 64, 64]           --\n│    └─Conv2d: 2-3                       [1, 10, 64, 64]           910\n│    └─ReLU: 2-4                         [1, 10, 64, 64]           --\n│    └─MaxPool2d: 2-5                    [1, 10, 32, 32]           --\n├─Sequential: 1-2                        [1, 10, 16, 16]           --\n│    └─Conv2d: 2-6                       [1, 10, 32, 32]           910\n│    └─ReLU: 2-7                         [1, 10, 32, 32]           --\n│    └─Conv2d: 2-8                       [1, 10, 32, 32]           910\n│    └─ReLU: 2-9                         [1, 10, 32, 32]           --\n│    └─MaxPool2d: 2-10                   [1, 10, 16, 16]           --\n├─Sequential: 1-3                        [1, 3]                    --\n│    └─Flatten: 2-11                     [1, 2560]                 --\n│    └─Linear: 2-12                      [1, 3]                    7,683\n==========================================================================================\nTotal params: 10,693\nTrainable params: 10,693\nNon-trainable params: 0\nTotal mult-adds (M): 6.75\n==========================================================================================\nInput size (MB): 0.05\nForward/backward pass size (MB): 0.82\nParams size (MB): 0.04\nEstimated Total Size (MB): 0
…
"num_params\", \"trainable\"],\n        col_width=20,\n        row_settings=[\"var_names\"]\n) \n\n============================================================================================================================================\nLayer (type (var_name))                                      Input Shape          Output Shape         Param #              Trainable\n============================================================================================================================================\nEfficientNet (EfficientNet)                                  [32, 3, 224, 224]    [32, 1000]           --                   True\n├─Sequential (features)                                      [32, 3, 224, 224]    [32, 1280, 7, 7]     --                   True\n│    └─Conv2dNormActivation (0)                              [32, 3, 224, 224]    [32, 32, 112, 112]   --                   True\n│    │    └─Conv2d (0)                                       [32, 3, 224, 224]    [32, 32, 112, 112]   864                  True\n│    │    └─BatchNorm2d (1)                                  [32, 32, 112, 112]   [32, 32, 112, 112]   64                   True\n│    │    └─SiLU (2)                                         [32, 32, 112, 112]   [32, 32, 112, 112]   --                   --\n│    └─Sequential (1)                                        [32, 32, 112, 112]   [32, 16, 112, 112]   --                   True\n│    │    └─MBConv (0)                                       [32, 32, 112, 112]   [32, 16, 112, 112]   1,448                True\n│    └─Sequential (2)                                        [32, 16, 112, 112]   [32, 24, 56, 56]     --                   True\n│    │    └─MBConv (0)                                       [32, 16, 112, 112]   [32, 24, 56, 56]     6,004                True\n│    │    └─MBConv (1)                                       [32, 24, 56, 56]     [32, 24, 56, 56]     10,710               True\n│    └─Sequential (3)                                        [32, 24, 56, 56]     [32, 40, 28, 28]     --                   True\n│    │    └─MBConv (0)                                       [32, 24, 56, 56]     [32, 40, 28, 28]     15,350               True\n│    │    └─MBConv (1)                                       [32, 40, 28, 28]     [32, 40, 28, 28]     31,290               True\n│    └─Sequential (4)                                        [32, 40, 28, 28]     [32, 80, 14, 14]     --                   True\n│    │    └─MBConv (0)                                       [32, 40, 28, 28]     [32, 80, 14, 14]     37,130               True\n│    │    └─MBConv (1)                                       [32, 80, 14, 14]     [32, 80, 14, 14]     102,900              True\n│    │    └─MBConv (2)                                       [32, 80, 14, 14]     [32, 80, 14, 14]     102,900              True\n│    └─Sequential (5)                                        [32, 80, 14, 14]     [32, 112, 14, 14]    --                   True\n│    │    └─MBConv (0)                                       [32, 80, 14, 14]     [32, 112, 14, 14]    126,004              True\n│    │    └─MBConv (1)                                       [32, 112, 14, 14]    [32, 112, 14, 14]    208,572              True\n│    │    └─MBConv (2)                                       [32, 112, 14, 14]    [32, 112, 14, 14]    208,572              True\n│    └─Sequential (6)                                        [32, 112, 14, 14]    [32, 192, 7, 7]      --                   True\n│    │    └─MBConv (0)                                       [32, 112, 14, 14]    [32, 192, 7, 7]      262,492              True\n│    │    └─MBConv (1)                                       [32, 192, 7, 7]      [32, 192, 7, 7]      587,952              True\n│    │    └─MBConv (2)                                       [32, 192, 7, 7]      [32, 192, 7, 7]      587,952              True\n│    │    └─MBConv (3)                                       [32, 192, 7, 7]      [32, 192, 7, 7]      587,952              True\n│    └─Sequential (7)                                        [32, 192, 7, 7]      [32, 320, 7, 7]      --                   True\n│    │    └─MBConv (0)                                       [32, 192, 7, 7]      [32, 320, 7, 7]      717,232              True\n│    └─Conv2dNormActivation (8)                              [32, 320, 7, 7]      [32, 1280, 7, 7]     --                   True\n│    │    └─Conv2d (0)                                       [32, 320, 7, 7]      [32, 1280, 7, 7]     409,600              True\n│    │    └─BatchNorm2d (1)                                  [32, 1280, 7, 7]     [32, 1280, 7, 7]     2,560                True\n│    │    └─SiLU (2)                                         [32, 1280, 7, 7]     [32, 1280, 7, 7]     --                   --\n├─AdaptiveAvgPool2d (avgpool)                                [32, 1280, 7, 7]     [32, 1280, 1, 1]     --                   --\n├─Sequential (classifier)                                    [32, 1280]           [32, 1000]           --                   True\n│    └─Dropout (0)                                           [32, 1280]           [32, 1280]           --                   --\n│    └─Linear (1)                                            [32, 1280]           [32, 1000]           1,281,000            True\n============================================================================================================================================\nTotal params: 5,288,548\nTrainable params: 5,288,548\nNon-trainable params: 0\nTotal mult-adds (G): 12.35\n=====================================================================================================================================
…
\"num_params\", \"trainable\"],\n        col_width=20,\n        row_settings=[\"var_names\"]\n)\n\n============================================================================================================================================\nLayer (type (var_name))                                      Input Shape          Output Shape         Param #              Trainable\n============================================================================================================================================\nEfficientNet (EfficientNet)                                  [32, 3, 224, 224]    [32, 3]              --                   Partial\n├─Sequential (features)                                      [32, 3, 224, 224]    [32, 1280, 7, 7]     --                   False\n│    └─Conv2dNormActivation (0)                              [32, 3, 224, 224]    [32, 32, 112, 112]   --                   False\n│    │    └─Conv2d (0)                                       [32, 3, 224, 224]    [32, 32, 112, 112]   (864)                False\n│    │    └─BatchNorm2d (1)                                  [32, 32, 112, 112]   [32, 32, 112, 112]   (64)                 False\n│    │    └─SiLU (2)                                         [32, 32, 112, 112]   [32, 32, 112, 112]   --                   --\n│    └─Sequential (1)                                        [32, 32, 112, 112]   [32, 16, 112, 112]   --                   False\n│    │    └─MBConv (0)                                       [32, 32, 112, 112]   [32, 16, 112, 112]   (1,448)              False\n│    └─Sequential (2)                                        [32, 16, 112, 112]   [32, 24, 56, 56]     --                   False\n│    │    └─MBConv (0)                                       [32, 16, 112, 112]   [32, 24, 56, 56]     (6,004)              False\n│    │    └─MBConv (1)                                       [32, 24, 56, 56]     [32, 24, 56, 56]     (10,710)             False\n│    └─Sequential (3)                                        [32, 24, 56, 56]     [32, 40, 28, 28]     --                   False\n│    │    └─MBConv (0)                                       [32, 24, 56, 56]     [32, 40, 28, 28]     (15,350)             False\n│    │    └─MBConv (1)                                       [32, 40, 28, 28]     [32, 40, 28, 28]     (31,290)             False\n│    └─Sequential (4)                                        [32, 40, 28, 28]     [32, 80, 14, 14]     --                   False\n│    │    └─MBConv (0)                                       [32, 40, 28, 28]     [32, 80, 14, 14]     (37,130)             False\n│    │    └─MBConv (1)                                       [32, 80, 14, 14]     [32, 80, 14, 14]     (102,900)            False\n│    │    └─MBConv (2)                                       [32, 80, 14, 14]     [32, 80, 14, 14]     (102,900)            False\n│    └─Sequential (5)                                        [32, 80, 14, 14]     [32, 112, 14, 14]    --                   False\n│    │    └─MBConv (0)                                       [32, 80, 14, 14]     [32, 112, 14, 14]    (126,004)            False\n│    │    └─MBConv (1)                                       [32, 112, 14, 14]    [32, 112, 14, 14]    (208,572)            False\n│    │    └─MBConv (2)                                       [32, 112, 14, 14]    [32, 112, 14, 14]    (208,572)            False\n│    └─Sequential (6)                                        [32, 112, 14, 14]    [32, 192, 7, 7]      --                   False\n│    │    └─MBConv (0)                                       [32, 112, 14, 14]    [32, 192, 7, 7]      (262,492)            False\n│    │    └─MBConv (1)                                       [32, 192, 7, 7]      [32, 192, 7, 7]      (587,952)            False\n│    │    └─MBConv (2)                                       [32, 192, 7, 7]      [32, 192, 7, 7]      (587,952)            False\n│    │    └─MBConv (3)                                       [32, 192, 7, 7]      [32, 192, 7, 7]      (587,952)            False\n│    └─Sequential (7)                                        [32, 192, 7, 7]      [32, 320, 7, 7]      --                   False\n│    │    └─MBConv (0)                                       [32, 192, 7, 7]      [32, 320, 7, 7]      (717,232)            False\n│    └─Conv2dNormActivation (8)                              [32, 320, 7, 7]      [32, 1280, 7, 7]     --                   False\n│    │    └─Conv2d (0)                                       [32, 320, 7, 7]      [32, 1280, 7, 7]     (409,600)            False\n│    │    └─BatchNorm2d (1)                                  [32, 1280, 7, 7]     [32, 1280, 7, 7]     (2,560)              False\n│    │    └─SiLU (2)                                         [32, 1280, 7, 7]     [32, 1280, 7, 7]     --                   --\n├─AdaptiveAvgPool2d (avgpool)                                [32, 1280, 7, 7]     [32, 1280, 1, 1]     --                   --\n├─Sequential (classifier)                                    [32, 1280]           [32, 3]              --                   True\n│    └─Dropout (0)                                           [32, 1280]           [32, 1280]           --                   --\n│    └─Linear (1)                                            [32, 1280]           [32, 3]              3,843                True\n============================================================================================================================================\nTotal params: 4,011,391\nTrainable params: 3,843\nNon-trainable params: 4,007,548\nTotal mult-adds (G): 12.31\n=============================================================================================================================
…
